zess-q3-recommendations/RippleNet/data/py_model.pkl (torch, 117987 bytes, 3 tensors)

weight f4 [4, 16]
000000 cb b4 0e 40 74 4c bd 3e 5a b0 0c c0 df 74 9b 3e
       2.2297847 0.36972392 -2.1982636 0.30362603
000010 63 86 e1 bf 9e 0b d8 3f 30 79 24 bf 3f 42 6c 3e
       -1.7619137 1.6878545 -0.6424742 0.23072146
000020 73 5e 61 bf 4b 6d b3 bf 7d 01 2b c0 72 3b bf 3f
       -0.88034743 -1.4017729 -2.6719658 1.4940016
000030 48 9c 35 3f e2 9c 74 3f d3 66 32 bf bd 43 0c 40
       0.7094159 0.95551884 -0.6968815 2.1916344
000040 65 61 d5 bd ca f4 12 be c7 44 8c bd 04 52 16 bc
       -0.10418967 -0.14351192 -0.06849056 -0.0091748275
000050 49 70 8b bd e1 58 5f 3e 8c e5 7d be 84 5c 74 3d
       -0.06808526 0.21811248 -0.24794596 0.059658542
000060 e6 4f 09 bd 10 81 b0 be 38 a1 43 bf d6 4c 9e bb
       -0.033523463 -0.34473467 -0.76417875 -0.004830937
000070 2f 2f 0e be 76 3c f5 3c e8 13 c0 3d 7c fc 82 bc
       -0.13885187 0.029936057 0.09378797 -0.015989535
000080 c4 a4 35 c0 ab 93 2f bf be 2b fe be e0 91 a7 40
       -2.8381815 -0.685847 -0.49642748 5.236557
000090 c7 b5 24 40 85 19 56 c0 e5 fd 86 3e 51 1d b4 bf
       2.5735948 -3.3453076 0.2636558 -1.4071447
0000a0 e4 37 29 c0 c0 1e 12 40 8b c1 64 bf b5 c0 00 bf
       -2.6440363 2.2831268 -0.89357823 -0.5029405
0000b0 5d b5 9f bf ad 52 be bf d8 be b3 3d 58 66 13 c0
       -1.2477223 -1.4868981 0.08776635 -2.3031216
0000c0 cd 37 45 bf d6 76 34 3f e7 10 0f be b4 ca f0 be
       -0.7703827 0.7049383 -0.13971291 -0.4702965
0000d0 7a aa f7 3e d1 36 81 3e ad f0 d2 3c b1 71 fd be
       0.4837225 0.25237134 0.025749529 -0.49500802
0000e0 00 1c 95 be d2 11 97 be c7 05 d0 bf 62 43 ba bd
       -0.29122925 -0.29505783 -1.6251763 -0.090948835
0000f0 1b eb 08 3f fc ff 43 be f0 be 5f 3e d3 9b 05 3f
       0.5348374 -0.19140619 0.2185018 0.52190894

weight f4 [7189, 4]
000000 a9 37 8e bf 01 df 10 be c7 9e 2e 3f b0 f9 14 40
       -1.1110736 -0.14147569 0.68211025 2.3277397
000010 80 28 8d 3f 83 69 a9 be 7e aa ac bf 7b c4 64 be
       1.1027985 -0.33088312 -1.348953 -0.22340576
000020 8b d2 36 3e f7 5d 32 3f ce 62 e5 be 14 e8 19 3f
       0.17853753 0.6967463 -0.44801944 0.6011975
000030 89 7b ca bf b1 f2 fa be cd 2c bb 3e 98 ad 0a c0
       -1.581895 -0.49013284 0.36557618 -2.1668453
000040 7d e5 1b 40 95 8f 25 3f 7b 22 34 3f 1d ef 5f 40
       2.4358819 0.64672214 0.70365113 3.4989693
000050 64 81 a7 40 e9 4a 9d c0 69 f7 38 bf ba 82 64 bf
       5.2345448 -4.9153943 -0.7225252 -0.8926197
000060 fa da 49 3e cc 70 00 40 26 39 9f c0 a1 49 2b 3d
       0.19712439 2.0068846 -4.975726 0.041818265
000070 10 fe ce bf 6d 6a 33 40 cf c0 53 40 8b 98 97 be
       -1.6171284 2.8033707 3.308643 -0.2960857
000080 ac ed 2c c0 fb 5a 9b 40 46 56 1c c0 5b f3 db 40
       -2.7020063 4.854856 -2.4427657 6.8734565
000090 77 07 5f c0 6c 5f 85 bf 7d 2c 9b 40 de f1 2e 40
       -3.4848306 -1.0419745 4.8491807 2.7335124
0000a0 ab 41 3f c0 23 b8 4f c0 d1 d8 be c0 fe 1a 2f bd
       -2.988383 -3.2456138 -5.963967 -0.04275035
0000b0 ce 64 00 40 07 4a 0b c0 5d d9 19 c0 53 12 92 bb
       2.0061526 -2.1763933 -2.4038918 -0.004457751
0000c0 54 e0 d2 3e a7 f4 a5 3f 4d a9 31 40 a5 e9 6c be
       0.41186774 1.2965287 2.7759583 -0.23136003
0000d0 6b f6 24 be c0 a0 2a bf a5 7a 9f 3f af dc c2 3f
       -0.16109626 -0.66651535 1.2459303 1.5223597
0000e0 8a 51 03 3f 5c c5 c2 3f 07 5c 2c 40 bd db b2 bd
       0.51296294 1.5216479 2.693117 -0.08733318
0000f0 94 d4 2f 40 68 6c b8 3f 70 85 20 40 f0 b6 26 be
       2.7473497 1.4408083 2.5081444 -0.16280723
000100 73 53 34 3f 2b 3d 34 40 74 5a c4 3f 7c c2 cb bf
       0.70439833 2.8162334 1.5340104 -1.5918727
000110 e6 89 e4 3f 7f b8 d7 3f 3d bb 2c 40 fb 9d 85 bf
       1.7854583 1.6853179 2.698928 -1.0438837
000120 5c d7 d4 3f f4 25 0f bf aa 58 1f 40 af 38 90 3e
       1.6628222 -0.55917287 2.4897866 0.28168246
000130 c5 3a 7d 3f 21 f7 89 3f bb 4c 45 40 5c d2 84 3e
       0.989178 1.0778543 3.0828083 0.2594174
000140 4d 9f 96 40 3c 08 74 40 d6 20 15 40 6c b5 7b bf
       4.706946 3.8130026 2.3301291 -0.983237
000150 ca ac d4 3f 52 a0 dc 40 16 70 20 3f bf 9e 02 c0
       1.6615231 6.8945704 0.6267103 -2.040939
000160 0a 5a 22 c0 9a 1e 7c 3f a9 8e e0 3f cd e6 be bf
       -2.5367455 0.98484194 1.7543536 -1.4914185
000170 02 06 65 3e 6a 2d 01 40 51 e5 56 3e e0 2a 3b c0
       0.22365573 2.0183969 0.20985915 -2.924492
000180 bb 9e 0f 3f 30 78 39 40 cb 85 65 40 bb 0b 92 3e
       0.5610158 2.8979607 3.586291 0.28524575
000190 d6 b6 c3 3f 59 7f 4e 40 fe 7b 20 40 1d c9 af bf
       1.5290172 3.2265227 2.507568 -1.373325
0001a0 1c da bd 40 af ea 89 3f f6 91 e8 3f c9 5b d1 3f
       5.9328747 1.0774745 1.8169544 1.6356136
0001b0 90 07 84 3f 43 3d 28 bf 03 83 a9 3f e7 6e 74 40
       1.0314808 -0.6571848 1.3243107 3.819269
0001c0 2f 84 92 3f 2f 91 cc be c9 74 4f 3f a5 1e a9 40
       1.1446589 -0.39954516 0.81037575 5.284991
0001d0 d5 7b 02 be ab 26 ac be b2 54 ca 3f df 27 3e 3f
       -0.1274255 -0.3362325 1.5807097 0.7427959
0001e0 a0 a7 c0 3f ab 52 03 40 fe ab 39 40 3f 52 9b be
       1.5051155 2.0519207 2.9011226 -0.30336186
0001f0 53 4f 74 3f d9 e2 8b 3f 15 f8 0d 40 d6 15 35 bf
       0.9543354 1.0928603 2.2182667 -0.70736444
000200 b1 c3 4c c0 52 f6 aa bf 88 93 59 bd 6b cf 4e c0
       -3.199444 -1.3356421 -0.053119212 -3.2314098
000210 f6 c1 1b 40 b6 c2 8d c0 d5 9d 9e bf ee af 82 40
       2.4337134 -4.4300184 -1.2391917 4.083976
000220 3c 12 cf 3f b0 a6 94 3f 73 2d 70 40 48 44 3d 3f
       1.617744 1.1613369 3.752774 0.73932314
000230 f7 f0 8d 40 83 a6 6a c0 8e 42 bc 3e 74 c6 23 40
       4.4356647 -3.666413 0.36769527 2.5589876
000240 da f8 84 40 a3 6f 23 c0 fa 9b 3d c0 8c b9 c4 3f
       4.1553774 -2.5536888 -2.962645 1.5369124
000250 4f 88 ae 3f 40 b2 f3 3f 7e 2d 32 40 ba e1 6f bf
       1.3635348 1.9038773 2.7840266 -0.93703806
000260 6e a0 22 40 d1 74 c8 c0 0e 5f 18 bf ba c6 9c 3c
       2.5410419 -6.26426 -0.5952004 0.019137729
000270 51 4a 46 c0 07 d6 1e 40 f4 50 a8 c0 b8 a2 d2 40
       -3.098286 2.4818132 -5.259882 6.582363
000280 df c8 7e bf 01 ac eb 3f bd 4a 9e c0 c8 ec 82 3f
       -0.99525255 1.8411866 -4.9466233 1.022851
000290 54 bc d6 40 77 21 48 c0 ac 75 9f c0 75 cf a8 c0
       6.7104893 -3.1270425 -4.9831142 -5.2753243
0002a0 5e 83 40 40 2a 81 47 bf 9b 6f 76 c0 9f a0 d9 3f
       3.008018 -0.77931464 -3.8505619 1.7002143
0002b0 48 a6 d5 bf 1e 9b 59 bf 88 fb 0a c0 f5 c3 fc 3e
       -1.669137 -0.85002315 -2.1716022 0.49368253
0002c0 b6 d1 3d 41 53 0e 01 3e b9 55 93 c0 8e bf e9 3f
       11.863699 0.1260312 -4.604214 1.8261583
0002d0 f4 cd 59 be 44 af 39 c0 97 e9 71 c0 94 63 49 3f
       -0.21269971 -2.9013224 -3.7798822 0.7866757
0002e0 76 e0 f0 40 ff 12 9a c0 35 1f 09 c0 52 69 3d bf
       7.5274 -4.814819 -2.1425297 -0.7398883
0002f0 25 1b 25 be 46 dd cd c0 03 e7 18 c0 e9 9f 03 c0
       -0.16123636 -6.433261 -2.3890998 -2.0566351
000300 c3 54 2c 40 c1 ef 27 c0 da 38 2c c0 1b 79 2a 3f
       2.6926734 -2.6240084 -2.69097 0.6659104
000310 dc 6b 2f 40 40 ce 15 be 8a 99 96 c0 22 68 92 bf
       2.7409582 -0.1462946 -4.7062426 -1.1438029
000320 c6 b9 98 bd 8a 36 6b c0 01 f7 ad 3e a6 e6 af c0
       -0.074573085 -3.6752038 0.33977512 -5.4969053
000330 b5 94 bf 40 46 9b 76 bf a4 42 b2 c0 5a 08 42 bf
       5.9869027 -0.9633068 -5.570635 -0.75793993
000340 f9 4f dc c0 8a 7e 3f 3e 0d 77 8d c0 91 23 67 40
       -6.8847623 0.18700615 -4.4207826 3.6115458
000350 0c 08 b2 3e 37 67 85 c0 d6 58 ee bf aa d8 b2 c0
       0.34771764 -4.1688495 -1.862086 -5.5889482
000360 f6 c4 52 c0 dd 70 32 40 60 46 81 c0 5d 1e 82 bf
       -3.2932715 2.7881386 -4.0398407 -1.0165516
000370 c6 27 0f 40 c4 9b 33 c0 20 79 93 c0 d7 ce f1 bf
       2.2368026 -2.8063822 -4.608536 -1.8891248
000380 04 29 92 c0 9e 80 17 bf 5b b8 f6 bf db 4b 1e bf
       -4.567507 -0.5918063 -1.9275011 -0.61834496
000390 7e cb cd 40 4c 2a 91 40 1f 55 ff c0 a7 44 94 40
       6.4310904 4.536413 -7.9791408 4.6333804
0003a0 51 21 a7 bf b5 a2 d5 bf b5 6a 95 c0 b2 90 a5 40
       -1.3057042 -1.6690279 -4.6692758 5.173913
0003b0 c0 19 40 c0 71 94 89 c0 1e af 8b c0 ca 36 27 40
       -3.0015717 -4.2993703 -4.3651266 2.612719
0003c0 b6 1c 0e 3f 15 10 f9 bf 12 ea 90 c0 23 ff 9c c0
       0.5551256 -1.9458033 -4.528573 -4.9061446
0003d0 c4 ab a6 3d de 09 63 c0 0d b4 9a c0 05 5a 6e bd
       0.081382304 -3.5474772 -4.834479 -0.058191318
0003e0 38 7d 82 40 cd d9 f8 bd d9 86 24 c0 3f 1d 81 40
       4.0777855 -0.12150917 -2.5707304 4.03482
0003f0 b6 f6 ad 3d da 53 90 c0 e3 cd 26 bf 1b 5b 83 40
       0.08494322 -4.510236 -0.6515791 4.1048713

weight f4 [4, 4]
000000 33 be 35 3d b0 61 48 3d 59 e9 49 be 5f bb 28 be
       0.04437084 0.048921287 -0.19717921 -0.16477726
000010 cf 14 da 3d 12 34 68 be 6b 46 09 bd 5f 42 65 3e
       0.106485 -0.22676113 -0.03351442 0.223886
000020 71 74 da bd 91 42 2c 3c b7 2f 96 bd c7 d5 a5 bd
       -0.10666741 0.010513918 -0.0733332 -0.080974154
000030 a4 45 78 be 06 5b 28 3e 0d 6e f9 bd 05 58 bc bd
       -0.24245316 0.16440973 -0.12179194 -0.09196476
