eat-well/q3/RippleNet/src/py_modelz.pkl (torch, 52963 bytes, 3 tensors)

weight f4 [4, 16]
-0.7169332 0.672035 0.38827905 -0.12567037 1.0431333 -0.09236988 -0.5326791 -0.57204586
-1.8692528 -0.8923323 -0.31554985 0.0018701325 0.11384474 -0.25412935 -0.8914922 0.9122001
-0.0804659 0.6543633 -0.4475863 -0.12012795 -0.23974136 -0.19842117 -0.4355563 0.21205041
-0.119543 0.2588408 -0.20677717 -0.442659 -0.20030364 -0.4644662 0.3019465 0.7723765
0.38261303 0.3029945 -0.19972032 0.64939845 -0.320255 -0.49672303 -0.04940127 0.7576496
0.084305614 0.3761701 0.026919637 -0.24575867 0.7668984 1.4886812 0.29950765 -0.20923133
0.058727752 -0.7433005 0.60679984 0.6031144 -0.687388 -0.48007205 0.46732125 0.033134732
0.21940224 -0.5000018 0.039215066 -0.55609006 -0.52160996 1.0733771 -0.6166298 -0.18489155
00000000: ef88 37bf 7c0a 2c3f 83cc c63e bcaf 00be
00000010: 6485 853f 6b2c bdbd a85d 08bf 9971 12bf
00000020: ad43 efbf e46f 64bf c08f a1be 3c1f f53a
00000030: 6e27 e93d 3e1d 82be d538 64bf f285 693f
00000040: 4ecb a4bd 5a84 273f 082a e5be a505 f6bd
00000050: c27e 75be eb2e 4bbe 3c01 dfbe be23 593e
00000060: f6d2 f4bd c886 843e 65bd 53be 33a4 e2be
00000070: 661c 4dbe 84ce edbe bb98 9a3e 77ba 453f
00000080: dbe5 c33e 1822 9b3e 7c83 4cbe fa3e 263f
00000090: 77f8 a3be 7b52 febe fc58 4abd 53f5 413f
000000a0: 6ca8 ac3d 5e99 c03e 9286 dc3c 29a8 7bbe
000000b0: 7453 443f 1b8d be3f 1159 993e bd40 56be
000000c0: 838c 703d f148 3ebf 3c57 1b3f b565 1a3f
000000d0: a9f8 2fbf 01cc f5be bb44 ef3e 49b8 073d
000000e0: fbaa 603e 1e00 00bf fa9f 203d eb5b 0ebf
000000f0: 3b88 05bf 6c64 893f 73db 1dbf 3654 3dbe

weight f4 [3128, 4]
0.48549083 0.26133138 0.43911293 1.6733559 1.1584884 -1.0177063 -1.6805305 -0.49760216
0.27107075 0.25204712 -1.5446767 0.9408318 -0.49190554 -0.039770823 -0.7583237 0.15049653
2.4259179 0.7834319 -3.354716 2.9482722 -2.8883326 3.0492153 -0.5305868 -0.20167097
2.898549 -0.34469205 -2.9109833 -0.00090467744 -2.2509582 -1.4040208 1.4029349 0.62559164
1.7790464 0.9009608 0.09363827 0.056106903 -1.4636366 0.96322477 4.5591583 0.34132776
0.031591166 -1.1296437 -1.2114879 1.90277 -0.44418997 -1.0649831 0.19653918 1.2792747
2.3723998 -0.32285586 -0.3363557 -0.094393976 2.2976813 0.99657416 -0.49760538 -0.69010836
1.208437 1.7124685 -0.32812196 0.96007365 -0.7994554 1.9291025 2.2780387 -1.1449567
-3.5785308 0.348587 0.15197071 -2.4790313 1.8039758 -1.2077448 0.6450068 -1.0057906
-0.3976369 2.5967019 3.5026014 2.5499887 2.5443742 -4.7146893 -1.6448178 -1.0569916
1.5529544 1.4281732 -0.28362194 -0.31382766 -1.1496443 -3.1949654 -0.9301239 -3.233576
-1.170999 -1.2978367 1.2579552 0.27945074 1.5295119 0.509459 1.1787773 0.53771126
-2.6868386 1.2231066 1.0379974 -0.22973393 0.92270166 1.1055583 1.5033032 -3.005347
-0.47046974 -0.62507474 -1.4196699 1.3158408 3.6952271 0.9936106 -0.2240593 2.7456203
-1.6168634 1.2339363 -0.8388811 -0.019624308 1.0183698 -1.3609298 -0.038664658 -2.1458755
-1.4866549 -2.1278355 1.4492065 0.25673398 -0.9734937 -0.64469564 3.333374 1.1205046
0.9076374 2.0331414 -1.3561816 -1.1260967 -0.52915925 -1.4315436 1.2105962 -0.65413314
-2.2917304 1.034592 0.78422844 -0.21884719 0.008014824 0.43338597 0.17186321 0.020043222
0.48777327 -0.9412177 -1.9615859 1.1111089 2.1660674 -0.09285768 0.59664184 0.864462
1.7946382 -0.82303566 -1.380724 -0.12634756 -2.0907912 0.76772666 0.27734524 1.8070925
1.2716919 0.80537647 3.3798096 0.48658195 -1.0228823 0.22593233 0.770247 -0.05438094
1.0851917 -1.5883349 -1.9021904 -0.16294529 -0.8875435 -0.8960227 1.8013111 -1.4309746
-0.92912924 -0.086121164 2.2521555 2.1301095 3.1317236 -0.20337003 -1.0773937 1.6870273
0.3348438 0.97956014 -1.4857366 -1.4380229 -1.2270334 0.47110364 1.6608264 -1.2255327
0.27251002 1.613153 2.217424 0.105250835 2.144588 2.183449 4.235105 -1.0961444
-0.7285212 -3.283832 1.7757238 -1.5482056 2.424643 0.7685397 -0.8948054 -2.1183314
-0.35532814 -0.29154566 -0.96389383 1.345815 -0.24123779 2.1095543 -0.48266095 2.47209
2.7594812 -1.3014565 -0.42163405 1.1446413 1.0920495 1.5541136 -0.65791684 3.1660953
3.28539 3.0224867 0.3877004 -1.9839315 0.5084116 1.0448446 -1.2197713 -1.703262
-1.162883 -0.16861303 1.0692698 2.755018 1.1826663 2.4451532 0.38696367 -0.89997804
-0.3479058 -2.4265056 -0.36019808 0.13313168 1.7463745 -1.5979798 0.80125487 -0.23858823
0.6296254 -0.3915814 -0.6235288 -1.5945655 0.3673387 2.2102365 0.0042724926 0.9538416
00000000: 4192 f83e 3acd 853e 69d3 e03e 8730 d63f
00000010: 5949 943f 3344 82bf a01b d7bf b6c5 febe
00000020: c9c9 8a3e 520c 813e f7b7 c5bf 5ada 703f
00000030: 0bdb fbbe bbe6 22bd 8121 42bf c31b 1a3e
00000040: 3d42 1b40 fe8e 483f abb3 56c0 7eb0 3c40
00000050: 71da 38c0 5826 4340 89d4 07bf d682 4ebe
00000060: d481 3940 7a7b b0be 8d4d 3ac0 e027 6dba
00000070: b30f 10c0 f4b6 b3bf 5f93 b33f c626 203f
00000080: cbb7 e33f 5ea5 663f 6cc5 bf3d 5ad0 653d
00000090: 7258 bbbf e695 763f a0e4 9140 83c2 ae3e
000000a0: bd65 013d 2a98 90bf 0912 9bbf f88d f33f
000000b0: de6c e3be 5e51 88bf 9141 493e 46bf a33f
000000c0: 66d5 1740 5d4d a5be d036 acbe a151 c1bd
000000d0: 360d 1340 7c1f 7f3f 22c6 febe f1aa 30bf
000000e0: 10ae 9a3f 2b32 db3f 9aff a7be 63c7 753f
000000f0: 1ca9 4cbf d5ec f63f 63cb 1140 f18d 92bf
00000100: a606 65c0 ff79 b23e 369e 1b3e 73a8 1ec0
00000110: aee8 e63f 6297 9abf 2a1f 253f bfbd 80bf
00000120: 1097 cbbe 5d30 2640 9f2a 6040 0433 2340
00000130: 07d7 2240 bcde 96c0 6489 d2bf 804b 87bf
00000140: 36c7 c63f 61ce b63f e536 91be 05ae a0be
00000150: 8b27 93bf 507a 4cc0 9a1c 6ebf e9f2 4ec0
00000160: 4ce3 95bf 831f a6bf ad04 a13f 2b14 8f3e
00000170: 0cc7 c33f e86b 023f 2de2 963f 72a7 093f
00000180: 2af5 2bc0 c28e 9c3f 19dd 843f 5f3f 6bbe
00000190: 2d36 6c3f ef82 8d3f 3d6c c03f 9b57 40c0
000001a0: 69e1 f0be e604 20bf beb7 b5bf 796d a83f
000001b0: 9a7e 6c40 445d 7e3f cd6f 65be 3eb8 2f40
000001c0: 61f5 cebf a0f1 9d3f e9c0 56bf 28c3 a0bc
000001d0: f159 823f f332 aebf d55e 1ebd 0656 09c0
000001e0: b54a bebf 752e 08c0 997f b93f a372 833e
000001f0: e236 79bf c60a 25bf 0056 5540 b26c 8f3f
00000200: ed5a 683f fd1e 0240 5c97 adbf f023 90bf
00000210: fb76 07bf d23c b7bf d1f4 9a3f 4575 27bf
00000220: b6ab 12c0 836d 843f 32c3 483f 7a19 60be
00000230: 9c50 033c c4e4 dd3e e9fc 2f3e af31 a43c
00000240: 6bbd f93e a5f3 70bf 3f15 fbbf d138 8e3f
00000250: d9a0 0a40 2b2c bebd 85bd 183f 624d 5d3f
00000260: b4b6 e53f 77b2 52bf 90bb b0bf 4161 01be
00000270: 86cf 05c0 bc89 443f 3200 8e3e cf4e e73f
00000280: cdc6 a23f 272d 4e3f cd4e 5840 4521 f93e
00000290: cfed 82bf ce5a 673e e82e 453f 8cbe 5ebd
000002a0: 90e7 8a3f 8f4e cbbf fa7a f3bf 21db 26be
000002b0: 0d36 63bf be61 65bf 5d91 e63f 2d2a b7bf
000002c0: 6adb 6dbf 4b60 b0bd 5123 1040 b753 0840
000002d0: 296e 4840 3c40 50be 09e8 89bf 83f0 d73f
000002e0: a670 ab3e 74c4 7a3f 9e2c bebf 2211 b8bf
000002f0: 6e0f 9dbf 7f34 f13e f695 d43f 41de 9cbf
00000300: 6f86 8b3e cc7b ce3f 46ea 0d40 c08d d73d
00000310: ee40 0940 a1bd 0b40 fb85 8740 764e 8cbf
00000320: 5e80 3abf 4e2a 52c0 eb4a e33f 9a2b c6bf
00000330: 5a2d 1b40 05bf 443f f711 65bf be92 07c0
00000340: 92ed b5be 7945 95be bfc1 76bf aa43 ac3f
00000350: 0a07 77be f002 0740 561f f7be b936 1e40
00000360: 579b 3040 2096 a6bf 6be0 d7be 9b83 923f
00000370: 47c8 8b3f 32ed c63f 3d6d 28bf 4ea1 4a40
00000380: d443 5240 6c70 4140 ab80 c63e 78f1 fdbf
00000390: 4327 023f 78bd 853f 7721 9cbf 7d04 dabf
000003a0: 5ad9 94bf e5a8 2cbe d5dd 883f 3752 3040
000003b0: 9c61 973f 647d 1c40 1a20 c63e f664 66bf
000003c0: b620 b2be de4b 1bc0 e26b b8be ac53 083e
000003d0: 3389 df3f 9a8a ccbf 0a1f 4d3f 7950 74be
000003e0: 212f 213f 5b7d c8be 959f 1fbf b91a ccbf
000003f0: d113 bc3e 8474 0d40 4400 8c3b f72e 743f

weight f4 [4, 4]
0.18300305 1.1102593 0.26520967 0.10030485 -0.20616359 0.13030213 0.4888936 0.6887615
-1.0597522 0.049942475 -0.17941098 -0.26487508 -0.016336452 0.6403993 -0.31018478 0.25770915
00000000: 2765 3b3e fa1c 8e3f 90c9 873e a16c cd3d
00000010: 8c1c 53be ec6d 053e 4350 fa3e ac52 303f
00000020: f6a5 87bf 7b90 4c3d 83b7 37be b59d 87be
00000030: 06d4 85bc 35f1 233f 8ad0 9ebe 74f2 833e
