eat-well/q3/RippleNet/src/py_model.pkl (torch, 52963 bytes, 3 tensors)

weight f4 [4, 16]
000000 42 50 df bf be ed 30 3f ab e3 12 3f ec 11 76 3f
       -1.7446368 0.69112766 0.57378644 0.96121097
000010 4e 98 71 be ca 5e a5 be 70 a2 12 3f 06 2e 32 bf
       -0.23593256 -0.3229888 0.5727911 -0.69601476
000020 e3 7c 14 bf 99 17 2f 3f 19 54 6e bf 7f 35 ba 3d
       -0.5800306 0.6839538 -0.9309707 0.09092235
000030 d8 7b 12 bf 45 2f af bf 56 c4 c9 be 14 bc 47 3e
       -0.5722022 -1.36863 -0.39407605 0.1950534
000040 58 5e 0f bf 7c 98 cf be 00 a9 48 bf 63 86 94 bc
       -0.5600333 -0.40546024 -0.78382874 -0.018130487
000050 c6 64 de 3e 2a d5 68 bd 0d c3 8f 3e a0 81 fe be
       0.4343626 -0.056843914 0.280785 -0.4970827
000060 cf bb eb 3e af 58 2e 3d f2 17 0d bf ad 43 8c be
       0.46041724 0.042565044 -0.5511466 -0.27395383
000070 05 e0 5d 3e e4 d6 97 bd 8f cd 99 3e ea 39 bf 3d
       0.21667488 -0.07414034 0.3003964 0.09337218
000080 b7 32 49 3d e7 c8 2b 3e f1 ef b4 3f e3 3a 15 3e
       0.04912063 0.16775857 1.4135724 0.14573245
000090 fd 58 92 3e dc 2d ea bf 85 cc 08 bf 51 3b a7 3f
       0.28583518 -1.8295245 -0.5343707 1.3064977
0000a0 5e d6 aa bf 10 57 c3 bf 07 a2 e0 3d 72 09 96 bd
       -1.334667 -1.5260944 0.10968404 -0.0732602
0000b0 c8 4e 79 3d ba 08 09 bf b3 8b 39 3e 83 ee 69 3e
       0.060866147 -0.5352894 0.18119697 0.22844891
0000c0 6c 7a 34 bf 1f 9f 1d bf 9e a2 c3 be c3 29 55 be
       -0.704993 -0.61570925 -0.38210005 -0.20816712
0000d0 ce 20 17 bf 6e 3b 83 3b 86 72 88 3e 03 b3 e6 3e
       -0.5903443 0.0040048873 0.26649874 0.4505845
0000e0 06 d3 94 3f 96 3a 07 3f 8a 68 0f 3f 95 27 2a bc
       1.1626899 0.5282377 0.5601889 -0.010385414
0000f0 ca 51 31 3f 0a 74 8a 3e f6 47 c4 3e 5e 74 c9 bc
       0.69265425 0.27041656 0.38336152 -0.024591621

weight f4 [3128, 4]
000000 b7 df 31 bf 93 d7 3a 3f 55 36 9a bf 27 e0 ce bf
       -0.69481987 0.7298519 -1.2047831 -1.6162156
000010 e0 ad 98 3f a1 2e b8 bf a9 78 f3 3e a0 60 af 3f
       1.1928062 -1.438923 0.47552994 1.3701363
000020 46 9b fb be bf 0b 1f bf ac c1 76 be 30 70 82 3e
       -0.49141902 -0.621273 -0.24097317 0.25476217
000030 15 b2 96 bf 24 99 e3 bf 6e 92 ff 3e c2 64 e9 3f
       -1.1773096 -1.778111 0.49916404 1.8233874
000040 52 a5 73 be da 68 9d bf f3 61 70 c0 7b 5f 4d c0
       -0.23793533 -1.2297623 -3.7559783 -3.2089527
000050 cb 80 6e bf 76 9f d8 be 79 75 2e 40 c8 1f 6e 3f
       -0.9316527 -0.4230916 2.72592 0.93017244
000060 a8 9f 00 40 c4 ca eb 3f 20 e9 fc 3f 02 36 1a 40
       2.0097446 1.8421254 1.9758644 2.4095464
000070 f1 63 2c bf 94 3c c2 bf 08 34 81 3f 52 74 0c 40
       -0.6734 -1.5174737 1.0094004 2.1945996
000080 1a 30 36 40 7e 60 00 bf e0 99 ea bd b7 14 b0 3f
       2.846686 -0.50147235 -0.114551306 1.3756322
000090 3b 29 4b bf 16 3a f3 bf ea e8 7d 40 ab de 09 40
       -0.7935979 -1.9002101 3.967341 2.1542156
0000a0 6f 92 b8 be 87 77 40 bf 9e af 54 bf ef 7b 77 be
       -0.3604922 -0.75182384 -0.8308047 -0.2416837
0000b0 4c dd 30 40 ab a5 54 3f 30 54 77 3e 3b 48 cf 3f
       2.763507 0.8306529 0.24153209 1.6193918
0000c0 0e ac 50 3e 4f ea c1 3f aa 9f f6 bf 9a 14 18 bd
       0.20378134 1.514963 -1.9267476 -0.037129022
0000d0 d7 35 85 bf b5 f5 1a bf 2c f7 bb 3f f6 76 94 bf
       -1.0407056 -0.6053117 1.4684806 -1.1598804
0000e0 80 f3 ca bd a3 91 b0 3f f2 c7 e5 be 87 85 1e 3f
       -0.09909725 1.3794445 -0.4487911 0.61922497
0000f0 02 24 94 3f f8 85 18 3f a9 98 79 c0 bc 0d 04 bd
       1.1573489 0.5957942 -3.8999426 -0.03223966
000100 53 07 04 be 53 5f 33 bd be f1 8b 3f 0f 03 19 c0
       -0.12893419 -0.04379208 1.0933149 -2.3908117
000110 a0 ca e4 bf 06 1c 2d 40 e9 7e 18 3f 62 5e 13 c0
       -1.7874336 2.7048354 0.5956865 -2.3026357
000120 bf cb 63 40 06 ff 7f 3f ee 44 77 3f c7 1a 9b bd
       3.5593107 0.9999851 0.96589553 -0.07573467
000130 ca 85 52 3d a4 91 a4 3f fa 09 da 3f 23 1e f9 3f
       0.051397122 1.2856946 1.7034295 1.9462322
000140 b0 bd 19 40 04 c7 0b 3f b1 36 b3 bf 65 0d 01 3f
       2.4022026 0.5460055 -1.4001065 0.50411063
000150 74 4b d9 bf 5e cb 94 bf 22 93 03 3f 02 3c 4a 40
       -1.6976151 -1.1624563 0.5139638 3.1599126
000160 a8 ce c9 be fa 38 a6 be 7e d4 16 3f f8 5c 08 40
       -0.3941548 -0.32465345 0.5891799 2.1306744
000170 c3 f0 2e 3f 35 4b 3e c0 27 9a 39 3f 60 c9 e9 3e
       0.68336123 -2.9733403 0.7250084 0.4566145
000180 69 9a 93 be 4c 6d bc bf 5e 9c b2 bf f5 f1 8f 40
       -0.28828743 -1.4720855 -1.395397 4.498286
000190 f3 39 1f 40 ed 3b f5 bf 10 40 ca 3f 07 85 95 3e
       2.487912 -1.9158913 1.58008 0.29203054
0001a0 ac bd 44 3f a2 18 02 bf 76 f6 01 bf d3 fd 1e c0
       0.76851916 -0.50818837 -0.50766695 -2.4842422
0001b0 fa b3 0c bf 2a 1d 62 3f ca 88 40 bf ca 58 16 c0
       -0.5496212 0.8832575 -0.75208724 -2.3491693
0001c0 91 62 36 bf 1b 94 7e bf 18 d0 bb 3f dc 7c d2 3f
       -0.7124415 -0.9944474 1.467288 1.6444354
0001d0 fc 7b f1 3e 81 72 36 c0 3b 33 d9 bf de 69 78 bc
       0.47164905 -2.8507388 -1.6968759 -0.015161959
0001e0 5f 60 e5 bd 86 41 37 40 34 4f c4 bf 97 51 58 3e
       -0.11200022 2.8633742 -1.5336671 0.21124874
0001f0 7f 43 64 be bb e0 49 bf 12 a8 92 be 7b c3 84 3e
       -0.22291373 -0.78858536 -0.28643852 0.2593039
000200 06 b5 f7 bf 28 ca b2 bf 1f 37 92 bf 06 06 95 bf
       -1.9352119 -1.3967943 -1.1423072 -1.1642463
000210 54 79 40 40 d0 13 e4 bf 97 5e 53 bf 73 b9 3b bf
       3.0074053 -1.7818546 -0.8256621 -0.7332985
000220 e2 c5 f0 bf 80 fe 0c c0 19 ae b6 bf 82 9f ad 3d
       -1.8810389 -2.2030334 -1.427188 0.08477689
000230 6c ce 12 bf 95 75 3e c0 98 65 af 3f 82 fd b8 3f
       -0.57346225 -2.9759266 1.3702879 1.4452364
000240 a5 c7 57 3f 3c 83 2d 3f 20 f9 61 bf 76 1b 96 be
       0.8428901 0.6777837 -0.8827076 -0.29317826
000250 ae 5c c1 3f cb e8 58 c0 0c 2d fb be 51 eb 10 3f
       1.5106409 -3.3892086 -0.49057806 0.56609064
000260 43 87 04 40 50 fc 9e 3f ef b1 de bd 8d 91 ca 3f
       2.0707557 1.242075 -0.10873782 1.5825669
000270 5a 59 30 40 17 de 70 3f e5 83 48 3e b5 8c 0f bf
       2.7554536 0.9408888 0.19581564 -0.56074077
000280 4e 90 16 bd 44 ab 42 c0 78 19 12 40 90 17 76 bf
       -0.036758713 -3.0417032 2.2828045 -0.96129704
000290 6f 4a d2 3e 48 9f 88 3e 01 3a ac bf 75 04 b5 3f
       0.41072413 0.26684022 -1.3455201 1.4141985
0002a0 2e 63 e4 3e 70 1e bf bf 61 cd 7e bf ba 27 b5 bf
       0.44606918 -1.4931164 -0.99532133 -1.4152749
0002b0 53 70 2d 3f 97 78 0b 3f d1 91 90 3f 0d 04 c2 3e
       0.6774952 0.5448088 1.12945 0.37893716
0002c0 14 18 6a 40 4b 86 79 be 78 b3 15 3f 29 11 9f 3f
       3.6577196 -0.24367635 0.5847697 1.2427112
0002d0 54 3a 23 c0 37 0c e6 bf af 47 5c 3f 54 b8 7d bf
       -2.550435 -1.7972478 0.8604688 -0.9910939
0002e0 f6 b2 f5 bf 50 5e e1 3f 65 ad b7 3e 10 08 0b c0
       -1.919524 1.7606907 0.35874477 -2.172367
0002f0 cf f5 d8 bf e0 b0 62 bf e0 30 77 bf 0b 8e d0 3f
       -1.6950015 -0.8855114 -0.9655895 1.6293348
000300 2e 35 04 be 70 13 0f c0 68 c0 f4 bf 2f 17 24 3f
       -0.12910911 -2.2355614 -1.9121218 0.64097875
000310 15 07 fc 3f 86 b0 4c c0 27 2b c1 be af b8 90 bf
       1.9689661 -3.1982741 -0.37728235 -1.1306361
000320 d7 8d 27 c0 95 ea ef bf dc 65 53 be 4b d8 31 40
       -2.6180322 -1.8743464 -0.20644325 2.7788265
000330 7d aa 0d c0 4e dd f8 3f 1f 30 80 40 52 0a 1f c0
       -2.2135308 1.9442537 4.005874 -2.485005
000340 50 6c da bf a5 98 ce 3f e2 f0 9d bf e6 6d 24 c0
       -1.7064304 1.6140333 -1.2339137 -2.5692077
000350 78 63 12 3f de d2 e6 bf 18 33 47 bf 6f 8c a7 3f
       0.5718303 -1.8033102 -0.7781234 1.3089732
000360 f5 b0 ac bf 53 e5 4d 3f 89 33 c2 3f 2d 89 19 40
       -1.3491503 0.80428046 1.5171977 2.3989975
000370 0d f9 32 be 82 48 09 bf f9 d9 0e c0 fd 0d 27 be
       -0.17477818 -0.53626263 -2.232054 -0.1631393
000380 36 bd 60 be eb 21 5d c0 9e ce 9a 3f b2 37 e2 3e
       -0.21947178 -3.4551952 1.2094305 0.44183117
000390 4a e7 3c c0 6f 3c 23 c0 dd e0 94 bf f0 a5 c9 be
       -2.9516168 -2.5505636 -1.1631123 -0.39384413
0003a0 32 68 d5 be c1 a5 b3 3f c7 ed 66 c0 54 de 96 3e
       -0.41681057 1.4034959 -3.6082628 0.29466498
0003b0 82 69 39 be 10 dd 01 c0 4c e9 ae be e1 e8 b3 3f
       -0.18106654 -2.0291176 -0.34162366 1.4055444
0003c0 f3 e2 6c 3f 53 ff 72 bf 11 35 3d 3d e7 43 8e bf
       0.925338 -0.94920844 0.046193186 -1.1114472
0003d0 c5 ac 86 3f ba c2 01 c0 10 38 4f 3f d7 8d 3f 3e
       1.0521475 -2.0275102 0.8094492 0.18706451
0003e0 ae 41 d7 3e 34 a7 13 c0 8e 5a 7c 3f b3 75 30 bf
       0.42042297 -2.3070803 0.98575675 -0.68929595
0003f0 9d 95 52 40 b5 36 28 bd 50 dd ed bd 2b fb b6 bd
       3.2903817 -0.041067798 -0.11614478 -0.08934625

weight f4 [4, 4]
000000 f9 e4 34 3d fa 1f db 3e a7 09 a4 bd 02 c7 4f 3e
       0.044163678 0.42797834 -0.080096535 0.20290759
000010 eb e6 1c 3e 82 3e d0 3e 52 de 76 be 7e 77 7e bf
       0.15322463 0.4067269 -0.24108246 -0.9940108
000020 84 75 c5 3d 74 72 1d be 87 76 76 3d aa 8e ab 3e
       0.09641555 -0.15375692 0.06017163 0.33507282
000030 06 ae 07 3f 27 40 35 3f 25 42 bf be 59 3d 19 3f
       0.52999914 0.70801014 -0.37355152 0.59859234
