flask-q4-recommendations-demo/eat-well/q3/RippleNet/data/py_model.pkl (torch, 52963 bytes, 3 tensors)

weight f4 [4, 16]
-1.282553 -0.3012118 0.68825734 0.12156406 0.4781646 0.43916884 -0.40692383 -1.378883
0.7788618 -1.3976269 0.8722131 -0.060307663 0.10937462 1.3571842 1.2115562 -0.22923751
-0.7391516 -0.17221342 0.0668925 -0.030675147 -0.07566056 -0.39976418 -0.18730554 1.0134233
0.25127974 -0.29811487 0.25916353 0.4227626 0.85027003 -0.3738337 -0.25228512 -0.28012046
-1.7642456 -0.09630684 -0.049425654 -0.060115106 -0.10982323 -0.6699792 -0.14734626 -0.32087776
0.078531876 -0.21155897 -1.0333371 0.12158901 -0.21445292 -0.035022892 0.19788319 -1.5369056
-0.97206146 -0.48151752 0.12461184 0.027603881 0.1853821 -0.13972904 0.7790184 -0.18929607
0.48757708 -0.36567673 0.5984692 0.79342556 -0.31535602 -0.72706723 0.41100687 -0.5942962
00000000: b22a a4bf 6f38 9abe a231 303f 94f6 f83d
00000010: fed1 f43e bdda e03e 5258 d0be 3d7f b0bf
00000020: 7d63 473f 70e5 b2bf 5c49 5f3f 2b05 77bd
00000030: cdff df3d 36b8 ad3f 4614 9b3f 3dbd 6abe
00000040: 0a39 3dbf b758 30be effe 883d 724a fbbc
00000050: ecf3 9abd e4ad ccbe 06cd 3fbe dbb7 813f
00000060: bda7 803e 83a2 98be 15b1 843e 5774 d83e
00000070: 4cab 593f 2167 bfbe 842b 81be f36b 8fbe
00000080: cdd2 e1bf 853c c5bd 8e72 4abd 423b 76bd
00000090: 00eb e0bd c283 2bbf f0e1 16be 174a a4be
000000a0: 52d5 a03d eaa2 58be 6444 84bf a903 f93d
000000b0: 8c99 5bbe 2a74 0fbd e4a1 4a3e 53b9 c4bf
000000c0: 05d9 78bf 7789 f6be 7e34 ff3d 8921 e23c
000000d0: ced4 3d3e 2115 0fbe c06d 473f d4d6 41be
000000e0: b4a3 f93e fb39 bbbe 4735 193f f01d 4b3f
000000f0: 5876 a1be 1421 3abf 7e6f d23e cc23 18bf

weight f4 [3128, 4]
-0.5692481 0.9199714 1.1108161 1.2898741 -1.478174 2.5672328 -0.4731198 0.33555076
-1.629326 -0.54974365 -0.47983426 -0.49968153 -1.0669804 1.1149396 -0.14067143 0.8057536
2.8688703 -1.7327588 1.004163 1.6880784 -2.1616185 -0.75187933 -0.36481214 -1.8120207
1.8016224 1.0345882 -2.2762392 -2.5616355 -1.1844647 0.19870695 -1.9704225 1.3700565
1.7584586 -1.1214134 0.9998494 -1.0913577 -1.1692861 1.3239676 -0.29427126 1.2073345
-2.6632614 0.19328651 -0.9336545 0.19860372 0.8835731 2.055107 0.61154854 0.3323195
0.12201409 -2.726262 1.3927169 0.08207308 2.004417 1.2430272 -0.17365566 -0.07824788
-0.6226985 -0.46372217 1.9217824 -0.40254554 -0.70900476 -2.8786554 -0.9891798 0.7509217
-1.6735824 -1.5603426 -0.33535156 -1.4698838 -0.7636966 0.15286839 2.1485176 -0.44823328
-1.4812074 -0.959945 -1.3189127 -0.04571639 -2.5963564 0.2528595 -1.4471687 0.9370722
0.72249734 0.054669823 -1.1851057 0.5844094 2.1811488 -0.65425646 -0.062360037 -0.9718824
-0.6384765 0.37427732 -2.1355147 -0.31962648 -2.102411 0.65309393 -0.3226582 1.7307763
0.2684486 -0.7743726 -2.8594327 2.05457 1.0155346 -0.5062731 -0.1400287 2.1534166
1.6783873 -2.480539 0.35240164 1.4583629 0.44855893 -2.007993 0.27119526 -1.6412367
1.0816655 -0.615363 0.882968 2.154347 1.3014841 0.3585743 2.291259 -1.0681375
0.5782053 -0.61025524 2.4239643 -0.12562697 0.18888097 -1.1261714 -4.0613947 0.73924106
-1.4871713 2.3478668 -0.32314152 1.3469609 0.040388353 1.6793152 1.275981 1.5449276
-4.2283225 -1.3538717 -0.66867167 0.03599829 1.7783812 -0.12310731 0.23097625 0.15423407
2.0829353 -0.043338202 1.5101092 -0.1037524 -2.103221 2.948847 0.28633824 -1.5473441
2.8549156 0.4488795 -0.7291858 0.25411576 1.3501691 -1.149752 0.27356392 -0.22665182
-0.14837788 -0.23708434 0.9853859 3.0211139 2.8335912 0.30748916 -0.8245696 0.9355859
0.5000855 1.3474332 0.33544162 -0.21871562 -1.1004348 -0.7005847 2.281836 0.6242489
1.5339031 -0.7031613 -0.04971962 -1.279905 0.2548807 -0.4571446 2.2223296 2.0113685
0.07713598 0.04083381 3.608634 2.1720984 -2.9029963 1.8324382 0.5960008 1.9699076
-1.5465513 -0.47963777 -0.22254647 -0.7042818 5.4009166 1.7533761 -0.16384847 -2.711714
-0.19934401 1.085724 1.7832094 -0.066785775 -0.63060945 -1.0712084 3.1036334 1.9392345
0.5765751 0.56209683 -0.55497575 1.3730134 -2.3141305 0.121957675 -0.6278646 -0.89655244
1.8448365 2.2073193 -1.3253791 1.7268744 -1.6055324 -1.2373044 1.4860011 1.6411227
0.48754242 -5.1171746 4.877566 -0.90328604 -0.32469645 -2.659764 1.6075745 -0.19472277
-1.7409103 0.5668892 -0.7948824 1.1964653 0.4149794 -0.8135315 0.8030875 -2.4757135
1.3680317 -1.2115309 0.2518802 -0.31590062 0.9002254 -0.07022235 -0.82965964 -0.7569059
1.051892 -1.4542333 -0.03873578 -2.2706788 2.0168195 -0.5091025 3.0043218 0.58951545
00000000: 3eba 11bf 3f83 6b3f 392f 8e3f 981a a53f
00000010: ce34 bdbf 8b4d 2440 c23c f2be 4fcd ab3e
00000020: c18d d0bf 00bc 0cbf d6ac f5be 42d6 ffbe
00000030: d092 88bf 57b6 8e3f 2c0c 10be de45 4e3f
00000040: 929b 3740 0acb ddbf 6a88 803f f412 d83f
00000050: f557 0ac0 2a7b 40bf a8c8 babe 4bf0 e7bf
00000060: 909b e63f 636d 843f e7ad 11c0 d6f1 23c0
00000070: 8a9c 97bf d679 4b3e ce36 fcbf 035e af3f
00000080: 2c15 e13f 798a 8fbf 21f6 7f3f 9cb1 8bbf
00000090: 2bab 95bf c577 a93f b9aa 96be f089 9a3f
000000a0: e072 2ac0 e6ec 453e fb03 6fbf c65e 4b3e
000000b0: d931 623f e086 0340 728e 1c3f c825 aa3e
000000c0: 86e2 f93d 147b 2ec0 8c44 b23f ee15 a83d
000000d0: 5e48 0040 841b 9f3f cad2 31be 6d40 a0bd
000000e0: 2b69 1fbf fe6c edbe f7fc f53f 731a cebe
000000f0: 5681 35bf e43b 38c0 e33a 7dbf 683c 403f
00000100: f337 d6bf 4eb9 c7bf 33b3 abbe 2725 bcbf
00000110: 9f81 43bf 8889 1c3e 5081 0940 d57e e5be
00000120: 3498 bdbf f5be 75bf 22d2 a8bf 1c41 3bbd
00000130: b42a 26c0 cd76 813e d33c b9bf f7e3 6f3f
00000140: 96f5 383f 77ed 5f3d 8bb1 97bf db9b 153f
00000150: f197 0b40 5a7d 27bf 3d6d 7fbd 49cd 78bf
00000160: 3273 23bf 47a1 bf3e 46ac 08c0 15a6 a3be
00000170: e78d 06c0 2a31 273f 7533 a5be 148a dd3f
00000180: 1872 893e 483d 46bf f200 37c0 137e 0340
00000190: 0afd 813f 1d9b 01bf af63 0fbe 94d1 0940
000001a0: 65d5 d63f 27c1 1ec0 fd6d b43e a3ab ba3f
000001b0: 84a9 e53e f582 00c0 1bda 8a3e 0b14 d2bf
000001c0: 0474 8a3f 6e88 1dbf 310a 623f d2e0 0940
000001d0: 0897 a63f 0d97 b73e fda3 1240 bbb8 88bf
000001e0: 4305 143f b039 1cbf 3b22 1b40 5ba4 00be
000001f0: 036a 413e 6226 90bf f2f6 81c0 e73e 3d3f
00000200: a15b bebf 7343 1640 ce72 a5be 3769 ac3f
00000210: 426e 253d cdf3 d63f 5853 a33f 30c0 c53f
00000220: 6b4e 87c0 ab4b adbf 112e 2bbf f172 133d
00000230: ffa1 e33f af1f fcbd 0a85 6c3e 89ef 1d3e
00000240: d04e 0540 6683 31bd 424b c13f 237c d4bd
00000250: 2c9b 06c0 e9b9 3c40 ed9a 923e 5f0f c6bf
00000260: f0b6 3640 89d3 e53e ecab 3abf 761b 823e
00000270: 57d2 ac3f 132b 93bf 9210 8c3e 6a17 68be
00000280: 5ff0 17be 3dc6 72be 4042 7c3f ee59 4140
00000290: 8f59 3540 386f 9d3e fe16 53bf 8f82 6f3f
000002a0: 9a05 003f b178 ac3f 01bf ab3e fdf6 5fbe
000002b0: 0cdb 8cbf 8559 33bf 9a09 1240 c7ce 1f3f
000002c0: f056 c43f 6102 34bf cda6 4bbd edd3 a3bf
000002d0: b97f 823e db0e eabe a63a 0e40 43ba 0040
000002e0: 78f9 9d3d 5a41 273d dcf3 6640 a903 0b40
000002f0: b1ca 39c0 568d ea3f 8293 183f ef25 fc3f
00000300: 65f5 c5bf 1593 f5be 39e3 63be d04b 34bf
00000310: 4fd4 ac40 a16e e03f e5c7 27be b98c 2dc0
00000320: d620 4cbe 01f9 8a3f 3540 e43f fbc6 88bd
00000330: 9f6f 21bf 5b1d 89bf eea1 4640 d638 f83f
00000340: 6d9a 133f 94e5 0f3f e412 0ebf e7be af3f
00000350: b71a 14c0 f2c4 f93d bcbb 20bf 7684 65bf
00000360: 9a23 ec3f b844 0d40 06a6 a9bf 380a dd3f
00000370: 1682 cdbf fe5f 9ebf 4935 be3f 4f10 d23f
00000380: 299f f93e e5bf a3c0 0515 9c40 c13d 67bf
00000390: 9d3e a6be 9339 2ac0 00c5 cd3f 6865 47be
000003a0: 26d6 debf a71f 113f 6a7d 4bbf c625 993f
000003b0: 2e78 d43e 9a43 50bf 2497 4d3f 1772 1ec0
000003c0: aa1b af3f 7213 9bbf 71f6 803e babd a1be
000003d0: 2c75 663f bcd0 8fbd 9364 54bf 96c4 41bf
000003e0: 66a4 863f 5124 babf 69a9 1ebd cd52 11c0
000003f0: 9213 0140 8b54 02bf cf46 4040 7cea 163f

weight f4 [4, 4]
-0.48381725 -0.038959887 0.01993325 -0.9185291 0.16386747 -0.30999285 0.29542083 0.42290705
-0.3392775 0.64133966 -0.1471903 -0.24667 0.34526023 0.015286645 -0.33510378 -0.23668826
00000000: e5b6 f7be 6794 1fbd 0e4b a33c b924 6bbf
00000010: e0cc 273e 62b7 9ebe 6641 973e 4687 d83e
00000020: c8b5 adbe d62e 243f 0eb9 16be 0f97 7cbe
00000030: f3c5 b03e d674 7a3c b992 abbe 685e 72be
