eat-well/q3/RippleNet/src/Presentation/py_model.pkl (torch, 117987 bytes, 3 tensors)

weight f4 [4, 16]
0.36091018 1.4214298 -1.1019586 1.0009062 1.6637231 -0.29886633 0.27815133 -0.31281632
2.297658 -0.96686983 -0.82468945 1.8022969 0.7861334 1.521104 -1.1308426 0.038907465
-0.27377328 0.25607607 -0.0621358 -0.060359437 0.3461153 -0.13285276 0.00028463453 0.08765825
-0.06759849 0.036205005 -0.027039533 -0.23020732 0.19202362 0.18123324 -0.067068994 0.14944533
2.9145176 1.6606271 -0.75375336 -5.2221303 3.3073883 4.150238 0.2088562 1.7987803
0.1282401 1.123646 5.100182 -0.8096879 0.34443533 0.35801208 -0.28493768 2.1119924
-0.28291577 -0.36285338 0.07877851 0.13384268 0.79513615 -0.036724277 -0.16565567 -0.18402286
0.10777971 0.5735267 1.2259696 0.19663972 -0.6242673 0.7851429 -0.3630394 -0.8784167
00000000: 38c9 b83e 69f1 b53f fb0c 8dbf b21d 803f
00000010: e1f4 d43f 0205 99be da69 8e3e 7629 a0be
00000020: d40c 1340 c884 77bf d91e 53bf aab1 e63f
00000030: 0a40 493f 89b3 c23f 73bf 90bf 6f5d 1f3d
00000040: 032c 8cbe 671c 833e 1c82 7ebd 753b 77bd
00000050: 0636 b13e 8e0a 08be 003b 9539 2b86 b33d
00000060: 1471 8abd b34b 143d 0382 ddbc 78bb 6bbe
00000070: d7a1 443e 3595 393e 785b 89bd 3208 193e
00000080: 7587 3a40 6e8f d43f fbf5 40bf b11b a7c0
00000090: 40ac 5340 c0ce 8440 66de 553e 6f3e e63f
000000a0: 5f51 033e a2d3 8f3f b134 a340 b547 4fbf
000000b0: d459 b03e 5c4d b73e 5ae3 91be e22a 0740
000000c0: 56da 90be ebc7 b9be a156 a13d 0e0e 093e
000000d0: 0b8e 4b3f 326c 16bd a4a1 29be 7d70 3cbe
000000e0: 9cbb dc3d a5d2 123f 92ec 9c3f ec5b 493e
000000f0: fbcf 1fbf 20ff 483f 4de0 b9be ebdf 60bf

weight f4 [7189, 4]
-1.6664528 1.2289592 -1.9314183 -0.8970636 0.58173573 -1.7727199 -1.1071014 -0.6561325
-0.45485356 0.59902817 -0.29640627 -0.2366429 -0.82711035 1.7827631 1.2778572 -0.47590682
1.528046 -0.46347913 -4.23277 4.3069725 2.840982 -2.2235093 0.13104753 4.446268
0.26621798 1.253297 -0.67118955 0.53428197 1.8287164 -0.05366438 1.3837119 2.0437436
-1.5438713 -4.524711 3.7802782 -1.2296582 -0.8417339 1.4785001 -1.4100994 1.285951
-1.0688465 0.44219875 1.5037076 -0.27247977 -0.4312777 1.8981003 -1.3944443 -0.40815625
-4.400453 -0.08234661 -8.139104 -8.461954 1.4340227 -0.8917686 0.15042624 0.70532143
1.4122901 -1.2516913 1.0630829 1.0063562 1.5674245 -1.5684394 1.1529086 1.0235016
1.5188869 -1.3139244 0.77095765 0.81731886 1.1396372 0.7414459 0.19424812 2.0706835
0.018892752 -3.135021 2.5830095 -2.4389021 4.7465143 -3.044178 0.6237098 1.4674379
-0.65762883 -0.9369567 5.9596996 3.6518173 0.78331107 2.9010334 1.0358793 6.1796303
0.719783 -3.929212 -0.36434773 2.6240306 3.4208574 -4.945816 0.9997626 -5.579224
2.1899924 -1.8562765 1.6754991 -0.5605248 -1.7994361 -3.5557225 4.822233 1.6096349
0.45587188 2.2512982 3.0815618 2.3863766 0.3549409 -0.6001095 -1.248629 0.33880547
4.54446 0.5338687 3.5057843 -1.902992 -1.8801014 1.9716969 1.9472741 -0.6818137
0.22371255 1.5963155 -3.5291677 -0.18011042 0.19233826 0.6297989 -3.8710532 -0.5511767
1.0318937 0.106852785 -0.9132511 0.72682655 -1.1069574 2.2625911 -2.1724472 1.5096555
-5.018311 2.8781292 -2.4853606 0.7070741 2.8653946 -5.6716933 -1.6771058 3.2036633
2.0288277 -0.88723755 1.1628345 -1.6392379 -2.4375927 2.1258657 4.158973 5.6284847
-1.213779 -5.6093183 1.4149747 -1.9220124 -1.6444899 -0.57606417 -1.1850531 0.8424427
-1.4606677 0.71228987 -0.8752655 -1.8549464 -0.60839957 0.29693505 -1.7420131 1.6718311
-2.2512264 1.5452648 -0.3185461 3.5461354 -1.8926872 -1.718442 -1.3886445 0.94464
4.1400743 1.9529536 -1.1210968 -2.06956 -0.20347953 3.7246258 -2.7854571 2.43751
-1.1030538 1.6354986 1.2921034 1.8339388 0.72262865 3.3583434 -0.2920035 1.8282727
-3.2287228 2.9642537 4.823142 3.3485124 -0.7733406 0.83379686 -1.2143546 1.3423781
-0.47860348 1.4529973 -2.3298433 0.5498538 -0.7329562 1.565623 -1.6771598 1.1321051
-2.2860696 0.48182103 -1.5547955 1.7474475 2.4292512 -2.258337 -2.3360693 -3.2656837
-1.8854781 -2.7842884 -2.3932285 1.0095209 3.8346379 -3.8011591 -2.4179933 -1.2128206
0.88432866 -0.44163173 -1.6854372 -2.1617358 5.112909 -1.2627636 -1.9660592 -2.933403
1.4752951 -0.15644431 1.2571136 3.0889573 1.309547 -0.5337461 1.0385966 2.5827615
1.9780793 -1.2318002 2.701688 -0.24701887 2.3386974 -1.2331713 -2.0136251 -0.20908916
1.3048675 -0.15695187 -0.9509715 2.2516954 2.5786378 0.054292582 1.06875 0.6122919
00000000: 534e d5bf 894e 9d3f b738 f7bf f6a5 65bf
00000010: a2ec 143f 7ce8 e2bf 80b5 8dbf 4df8 27bf
00000020: 91e2 e8be e959 193f 90c2 97be 8452 72be
00000030: 81bd 53bf 9531 e43f d390 a33f 0faa f3be
00000040: 0397 c33f 234d edbe da72 87c0 b8d2 8940
00000050: a6d2 3540 fa4d 0ec0 5331 063e d447 8e40
00000060: b94d 883e 096c a03f 14d3 2bbf b4c6 083f
00000070: 6113 ea3f 2ecf 5bbd 791d b13f b2cc 0240
00000080: 939d c5bf 6fca 90c0 14f0 7140 7165 9dbf
00000090: df7b 57bf 7e3f bd3f 237e b4bf 0b9a a43f
000000a0: f6cf 88bf e067 e23e 7e79 c03f 7882 8bbe
000000b0: 6ed0 dcbe f3f4 f23f 277d b2bf dbf9 d0be
000000c0: 83d0 8cc0 57a5 a8bd c539 02c1 2a64 07c1
000000d0: 0e8e b73f f24a 64bf 5609 1a3e f28f 343f
000000e0: ecc5 b43f 6c37 a0bf 1a13 883f 48d0 803f
000000f0: 5ea1 c83f 9fc2 c8bf 8292 933f 1a02 833f
00000100: e36a c23f ad2e a8bf 7b5d 453f cf3b 513f
00000110: a2df 913f 66cf 3d3f fbe8 463e 1486 0440
00000120: f9c4 9a3c 2fa4 48c0 0750 2540 f916 1cc0
00000130: 72e3 9740 d0d3 42c0 72ab 1f3f 01d5 bb3f
00000140: 5d5a 28bf 65dc 6fbf dcb5 be40 60b7 6940
00000150: 1387 483f 88aa 3940 b197 843f 88bf c540
00000160: b343 383f 3678 7bc0 c98b babe 1ef0 2740
00000170: 54ef 5a40 2044 9ec0 71f0 7f3f 0189 b2c0
00000180: d628 0c40 789a edbf c176 d63f 8e7e 0fbf
00000190: ec53 e6bf f590 63c0 bc4f 9a40 8408 ce3f
000001a0: 0a68 e93e 4515 1040 4f38 4540 65ba 1840
000001b0: d0ba b53e c7a0 19bf 13d3 9fbf e977 ad3e
000001c0: 376c 9140 9eab 083f c55e 6040 3e95 f3bf
000001d0: 2aa7 f0bf 9060 fc3f 4740 f93f 588b 2ebf
000001e0: e714 653e 1154 cc3f e2dd 61c0 de6e 38be
000001f0: 52f4 443e 803a 213f 56bf 77c0 eb19 0dbf
00000200: 1815 843f a2d5 da3d d3ca 69bf 4e11 3a3f
00000210: c8b0 8dbf 4bce 1040 6009 0bc0 643c c13f
00000220: 0196 a0c0 4533 3840 2610 1fc0 cf02 353f
00000230: a062 3740 837e b5c0 67ab d6bf d208 4d40
00000240: 50d8 0140 0022 63bf c3d7 943f 8cd2 d1bf
00000250: 8501 1cc0 2f0e 0840 4f16 8540 8c1c b440
00000260: 1c5d 9bbf 897f b3c0 e41d b53f 8104 f6bf
00000270: a57e d2bf f178 13bf d2af 97bf 53aa 573f
00000280: 29f7 babf a158 363f 6611 60bf e26e edbf
00000290: 13c0 1bbf df07 983e 49fa debf 90fe d53f
000002a0: 1814 10c0 3dcb c53f 7918 a3be e2f3 6240
000002b0: 9343 f2bf e8f5 dbbf 1abf b1bf edd3 713f
000002c0: 7d7b 8440 62fa f93f 1a80 8fbf ac73 04c0
000002d0: f05c 50be 4560 6e40 ee44 32c0 2a00 1c40
000002e0: de30 8dbf 0558 d13f a563 a53f 82be ea3f
000002f0: 31fe 383f 19ef 5640 7c81 95be d704 ea3f
00000300: 65a3 4ec0 55b6 3d40 2e57 9a40 074e 5640
00000310: a6f9 45bf b673 553f f96f 9bbf 0cd3 ab3f
00000320: 840b f5be d1fb b93f 271c 15c0 38c3 0c3f
00000330: 04a3 3bbf 5666 c83f 2cad d6bf d2e8 903f
00000340: f74e 12c0 3fb1 f63e 8a03 c7bf 5cac df3f
00000350: da78 1b40 9888 10c0 2982 15c0 f600 51c0
00000360: 5957 f1bf c831 32c0 a82a 19c0 fb37 813f
00000370: b56a 7540 3146 73c0 67c0 1ac0 b53d 9bbf
00000380: 5d63 623f 8e1d e2be 68bc d7bf e159 0ac0
00000390: f39c a340 3da2 a1bf d4a7 fbbf e0bc 3bc0
000003a0: 78d6 bc3f f032 20be 19e9 a03f 7ab1 4540
000003b0: 3c9f a73f 96a3 08bf bcf0 843f f74b 2540
000003c0: b431 fd3f a1ab 9dbf 75e8 2c40 84f2 7cbe
000003d0: 38ad 1540 8fd8 9dbf 3cdf 00c0 781b 56be
000003e0: e605 a73f feb7 20be de72 73bf c71b 1040
000003f0: 6708 2540 e661 5e3d cdcc 883f 29bf 1c3f

weight f4 [4, 4]
0.052599777 0.14063351 -0.073351115 -0.022958705 0.011328226 0.13733268 -0.005355649 -0.2024187
0.067070566 -0.17118843 -0.49697086 -0.01998243 -0.23767638 0.17512725 -0.2032616 0.078278154
00000000: dd72 573d 3b02 103e 1c39 96bd e513 bcbc
00000010: 069a 393c f0a0 0c3e 717e afbb d946 4fbe
00000020: 4b5c 893d 054c 2fbe f772 febe 31b2 a3bc
00000030: 7061 73be 8f54 333e cf23 50be 4c50 a03d
